model_dict.pt (torch, 85805 bytes, 7 tensors)

layer_1.weight f4 [98, 12]
000000 b1 95 6d 3c 30 18 39 3f af c9 cb be b5 2d c1 bd
       0.014501021 0.7230253 -0.3980231 -0.09432546
000010 f0 9d 14 3f 5c f9 c4 bd 5d 11 ce be f6 7e 2f be
       0.58053493 -0.09617874 -0.40247622 -0.17138276
000020 c3 03 23 bd 0e 96 a3 bd f5 2b 02 3c 62 fc 1b bf
       -0.03979851 -0.07987605 0.0079450505 -0.6093198
000030 5c fa f6 bc b1 ad 50 be dc b1 a1 3d a6 a7 b4 bd
       -0.030148678 -0.20378758 0.07895252 -0.08821039
000040 28 fc 4f 3e dc 2f 96 bd 02 47 86 bd 73 84 02 bb
       0.20311034 -0.07333347 -0.065565124 -0.0019915372
000050 d0 58 66 3d cc d0 61 3e 00 45 62 bb 79 b1 4b 3a
       0.056237042 0.22052306 -0.003452599 0.0007770281
000060 82 dc 63 bd 45 0f 26 c0 77 36 1e 3f 4a 8f 06 3f
       -0.055630215 -2.594682 0.61801857 0.5256239
000070 b4 ce 9d bf e2 75 7f be 6c 81 54 3f 0d cf 6b bf
       -1.2328706 -0.24947312 0.8300998 -0.9211281
000080 39 40 8c 3c 11 67 94 be 7c ef 08 bd e8 54 f9 bd
       0.017120467 -0.28984883 -0.033431515 -0.12174398
000090 08 a2 15 bd 7c d5 5a 3e 74 6e c9 bd c8 be 5d be
       -0.03653148 0.213705 -0.098355204 -0.21654809
0000a0 39 a7 3d bd 14 b5 3e be df 23 c3 bd 50 e5 d5 3c
       -0.046302054 -0.18623763 -0.09528326 0.026110321
0000b0 98 dc 8b 3d 72 c5 1b be 99 0d 29 bd 7e 4b 71 be
       0.06829184 -0.15212038 -0.041272733 -0.23563954
0000c0 d2 4f 23 be 4a e1 6c bf 98 99 22 3e 8e fb ad 3e
       -0.15948418 -0.92531264 0.15878904 0.33980983
0000d0 c8 ec 28 be 18 6e 9b 3b 3d f1 8f be ba 4e 75 bd
       -0.16496575 0.004743349 -0.28113738 -0.059889533
0000e0 d5 9a 96 bd 7b 54 05 bd 2d 01 08 3f ee 6e 6f 3d
       -0.073537506 -0.03255127 0.53126794 0.0584554
0000f0 35 2b 30 3e 43 6a d5 bf 15 10 5a 3e 51 5f 35 3d
       0.17203982 -1.6673054 0.21295197 0.044280354
000100 7c 76 09 3e 94 17 f7 be d6 3d 27 3e 52 88 a0 3d
       0.13424104 -0.48260176 0.16332182 0.07838501
000110 ea 26 95 be da 61 dc bd 4f 80 6b 40 a6 c2 d6 3e
       -0.29131252 -0.10760851 3.6797063 0.4194538
000120 ae 51 d8 bd e4 13 1e bf a9 2d 0e 3d c6 3b b9 3d
       -0.10562454 -0.617491 0.034711514 0.09044604
000130 7b 8c da bd bc 84 86 3e 3e bf 5f bd 84 84 12 3d
       -0.10671326 0.26273143 -0.054625742 0.035770908
000140 79 41 2c be 2e ed 58 3d 73 6c 0f 3e 18 d3 0d 3e
       -0.16821851 0.052960567 0.14006214 0.13850057
000150 24 00 9f be b4 e6 c5 bf a0 49 2e 3f 89 b9 95 3e
       -0.31054795 -1.546103 0.6808109 0.29243115
000160 8c 26 b3 be 2a bf 1d bd 48 84 25 3e d2 08 63 be
       -0.34990346 -0.038512386 0.16163743 -0.22171333
000170 db 5a 29 bc ca a7 9e 3b bf da ab be e9 12 03 3e
       -0.010336603 0.0048417794 -0.33565328 0.12800182
000180 08 fb de 3c 2a 9a fd bf a1 1d 26 3e 1c a1 f3 bb
       0.02721931 -1.9812672 0.1622224 -0.007434977
000190 ff 09 70 bf 72 8f db be 9e fe 02 bd cb 04 9a 3e
       -0.9376525 -0.42882878 -0.031981103 0.30081782
0001a0 c4 ea 69 3e 2c 4c ae 3f d0 1d 64 bf 38 07 44 be
       0.22843462 1.3616996 -0.8910799 -0.19143379
0001b0 fc f2 50 be 18 42 56 c0 24 e0 1b 3f e2 b5 99 3e
       -0.20405191 -3.347784 0.60888886 0.30021578
0001c0 cc 6d a8 be 50 81 d2 be cd a3 1f be 62 88 2f bc
       -0.32896268 -0.41114283 -0.15589829 -0.010713669
0001d0 4a 5e 08 3e 8c d2 9d bd d8 d3 15 c0 c5 ff d5 bd
       0.13317218 -0.07706174 -2.341055 -0.10449175
0001e0 ed 9e ff bd 17 a8 15 bf 4b df d8 3d dc cb 8d bd
       -0.124814846 -0.5845961 0.10589465 -0.06923649
0001f0 5a cd 64 be 01 86 f6 bd 79 23 fa 3d b6 1c 7d be
       -0.2234396 -0.12037278 0.12213797 -0.24717984
000200 59 de 9a 3b 7f b5 fa bd 18 eb db 3e 47 38 8b 3e
       0.004726213 -0.12241649 0.429528 0.27191374
000210 7b 11 51 be 03 c3 47 bc bf 75 bb 3d d5 af 7e 3d
       -0.20416825 -0.0121924905 0.09153318 0.062179405
000220 55 0c 7d be db 21 5a be cc 8c 7c 3d 3a fc 12 3c
       -0.24711736 -0.21301977 0.061657712 0.008971268
000230 31 56 51 3e 2e 20 82 bd 26 9a f4 3d 92 ab 3e bd
       0.20443036 -0.06353794 0.11943464 -0.04655034
000240 1d 14 03 be aa 1f 9a bd ff f4 41 3d 1e 2d 02 3e
       -0.12800641 -0.07525571 0.047352787 0.12712523
000250 4e e4 28 3e 45 d3 68 be c5 a1 b6 bc 94 a1 42 bd
       0.16493341 -0.22736843 -0.022293935 -0.047517374
000260 36 3c 58 be 42 6f 01 be 70 d1 65 3e 9a 85 fd be
       -0.21116719 -0.12640098 0.22443175 -0.49515992
000270 30 a2 79 bf fe 2b c5 3e 0e d2 9d be a0 a6 14 bf
       -0.97513103 0.38510126 -0.30824322 -0.5806675
000280 82 b9 00 3f 19 57 f7 3e 74 8e b8 be ee 7c 8d 3e
       0.5028306 0.48308638 -0.36046183 0.27634376
000290 f6 1a 81 3e f2 6d 95 3d 04 19 2d 3e 5b e0 00 bf
       0.25215882 0.07296361 0.16904074 -0.5034234
0002a0 42 d2 f4 be f1 e9 2d c0 48 cc bf 3e 1c ff f3 3e
       -0.47816664 -2.7174037 0.37460542 0.4765557
0002b0 53 6e 28 bf a6 cf 34 bf 69 57 9c 3e 67 20 ea be
       -0.6579334 -0.70629346 0.3053544 -0.45727846
0002c0 87 aa 9b 3d cf 39 bf bd d9 9f 33 bf 5d 79 3d bf
       0.07600885 -0.09337198 -0.70165783 -0.7401331
0002d0 ea 52 21 c0 24 c5 8f 3f 95 88 cd 3d 21 0b b6 bd
       -2.5206857 1.1232038 0.100358166 -0.088888414
0002e0 2f 38 84 3f 83 60 5c 3e 56 dc 12 3e 4b 98 76 bf
       1.0329646 0.21521191 0.14341864 -0.9632613
0002f0 c5 03 f7 bc 34 25 ca 3e fc e2 e4 be 44 55 ba bf
       -0.030153165 0.3948151 -0.44704425 -1.4557271
000300 84 63 f7 3c 63 52 53 3e 7e 40 ad be 67 94 cd be
       0.03019882 0.20636897 -0.33838266 -0.40152285
000310 16 46 bd 3e 8d b7 5d bd 87 80 70 3d 9b 99 d0 bd
       0.36967534 -0.054130126 0.058716323 -0.10185548
000320 b9 8e df 3d 7c 4a 4a 3e ab 44 11 bd e4 12 b3 bd
       0.10915894 0.19754976 -0.035465878 -0.087438375
000330 56 a5 66 3d ab 78 6a c0 fb dc c8 3e c4 07 8d 3e
       0.05631002 -3.663615 0.39231095 0.27544987
000340 81 6b db bf 7c 69 22 3f 31 15 22 3f 95 1f 16 bf
       -1.7142183 0.63442206 0.63313586 -0.5864194
000350 84 59 45 3e 9d 49 4d be 59 bb 5a bf 4b fd 53 bf
       0.19272429 -0.20047612 -0.8544212 -0.8280837
000360 36 72 8d bd 26 e9 21 be 46 f4 57 3e c0 80 86 bc
       -0.0690655 -0.15811595 0.21089277 -0.016418815
000370 b0 83 16 be 75 c7 3c be e1 b4 05 bf bb a6 dd bb
       -0.14698672 -0.18435462 -0.52229124 -0.0067642606
000380 42 10 86 bd 3a ce 6b be c3 38 96 3d 96 d8 ac 3e
       -0.0654607 -0.23027888 0.07335045 0.33758992
000390 12 99 13 3d 4f 81 87 c0 71 a3 67 3d 14 9b de 3e
       0.03603465 -4.2345347 0.056552354 0.4347769
0003a0 58 fc 08 bf 17 6f 5b be d9 fa 08 3d ed be 40 be
       -0.53510046 -0.21429096 0.033442352 -0.18822832
0003b0 6f 86 d1 3e 91 d5 b0 3d ed c3 97 bf e6 2e eb be
       0.40922877 0.086344846 -1.1856667 -0.45934218
0003c0 37 25 7a b8 d7 fa 4b bd a3 19 b8 3c 25 bf b0 bd
       -5.9639304e-05 -0.049799766 0.022473162 -0.08630208
0003d0 17 0b d2 3c 6a da df bc 53 ee 5f be de b6 ad 3d
       0.025640054 -0.027325828 -0.21868257 0.08482145
0003e0 a5 49 13 3d 9b 50 9b 3d f1 d9 a6 bd 62 fd eb bd
       0.035958905 0.07583734 -0.08147038 -0.11522938
0003f0 3f 41 9e be 12 2e 87 c0 43 16 46 3e ac 39 ee bb
       -0.30909154 -4.224374 0.1934443 -0.0072700586

layer_1.bias f4 [98]
000000 0f b0 87 bf 92 fe a2 bf 98 8a 8c c0 ff 34 9a bf
       -1.0600604 -1.2733939 -4.391918 -1.2047423
000010 18 0a b5 bf f4 5f 00 40 a3 0f b9 bf 2e e1 e8 bf
       -1.4143705 2.0058565 -1.4457897 -1.8193719
000020 b2 8c c4 c0 c9 13 d9 bf 52 25 a0 bf 63 7b 5a bf
       -6.1421747 -1.6959163 -1.2511389 -0.85344523
000030 c2 81 b0 bf b5 8e 13 c0 1c 6a 98 c0 2f 9d 6c c0
       -1.3789599 -2.3055851 -4.762953 -3.6970937
000040 02 28 95 bf 52 56 ac c0 60 50 c2 bf b2 57 7a bf
       -1.1652834 -5.385537 -1.5180779 -0.9779006
000050 ca ad 1e bf 52 94 37 c0 1c 67 7a 3f 10 b7 09 bf
       -0.6198393 -2.8684278 0.9781358 -0.53794956
000060 b4 82 83 bf d9 e6 6f c0 00 25 8d bf 6e e5 08 bf
       -1.0274262 -3.7484648 -1.1026917 -0.5347508
000070 f1 77 00 bf 6b 92 9b c0 f3 46 bd bf 10 3a ab c0
       -0.50183016 -4.8616233 -1.4787277 -5.3508377
000080 c2 0c 6c c0 76 42 c5 3e 07 d8 00 c0 06 34 e4 be
       -3.6882787 0.38527268 -2.0131853 -0.4457094
000090 7e 3e 2e bf 70 00 b9 c0 e4 9a 57 3e 90 9f ad bf
       -0.68064106 -5.7813034 0.2105518 -1.356432
0000a0 9e ce ba bf a3 c8 77 bf ad 80 16 bf 3a bc 88 c0
       -1.4594305 -0.9679052 -0.58790094 -4.272977
0000b0 a9 67 61 c0 12 5d fa be 80 41 e6 be b9 26 28 bf
       -3.521952 -0.48899132 -0.44971848 -0.65684086
0000c0 25 7a 8a bf 7c a0 ea bf d1 36 dd bf 41 4c 06 40
       -1.0818526 -1.8330226 -1.7282354 2.0984042
0000d0 47 5e a1 c0 56 e3 09 bf e4 aa 4d bf 4b a5 ed be
       -5.0427585 -0.5386251 -0.80338883 -0.4641517
0000e0 9d 76 12 c0 5c fd 2c c0 a4 ad d9 bf 05 3d 95 bf
       -2.2884896 -2.7029638 -1.7006116 -1.1659247
0000f0 71 82 ba bf b6 c5 66 bf 9c 2c 7a bf fc 6b 6c c0
       -1.4571058 -0.9014543 -0.9772432 -3.6940908
000100 df ea 33 c0 7c b9 2a c0 e7 ec d1 bf 32 d8 a4 bf
       -2.8112104 -2.667571 -1.6400422 -1.2878478
000110 74 0d 10 3f ab 14 8e c0 60 7f 9a c0 53 f9 50 bf
       0.5627053 -4.440023 -4.8280487 -0.8163044
000120 9d 85 85 c0 23 57 76 bf 3e 95 12 c0 da 96 bb c0
       -4.17256 -0.9622671 -2.290359 -5.8621645
000130 35 db 4d c0 e1 cc 06 bf 70 8e 8e c0 dd e5 0d c0
       -3.2165043 -0.5265637 -4.4548874 -2.2171547
000140 3b ab 39 bf 92 77 d3 be a8 7b 5f 3f f5 02 be bf
       -0.725269 -0.41302162 0.8729806 -1.4844652
000150 09 be 3d bf b1 f6 d7 bf 91 32 43 c0 40 2e a8 bf
       -0.74118096 -1.6872159 -3.0499613 -1.3139114
000160 58 f2 0a c0 5f 7e 15 bf 3a 1b 87 c0 e0 a6 09 c0
       -2.1710415 -0.5839595 -4.2220736 -2.1508102
000170 ae 0e e9 be 4b 89 57 c0 86 87 ed 3e 83 43 15 c0
       -0.45519012 -3.3677547 0.4639246 -2.3322456
000180 76 4f aa c0 26 13 c7 3f
       -5.3222 1.5552719

layer_2.weight f4 [98, 98]
000000 f2 64 95 be 24 e5 6d 3d 49 84 d5 3c 7f 79 28 bb
       -0.29178578 0.058079854 0.026064055 -0.0025707183
000010 48 db 2f bd c9 d8 9c be 98 1c 08 be ee aa ae bd
       -0.042933732 -0.30634144 -0.13292158 -0.08528696
000020 58 84 85 bd f4 1d ee bd 15 e6 09 be b0 43 01 3c
       -0.06519383 -0.11626807 -0.13466676 0.007889673
000030 cf 2a 90 3c e6 28 d8 bd 74 73 a6 bc 2f 26 6e bb
       0.017598538 -0.10554676 -0.020318724 -0.0036338677
000040 2e 7a 7f be 32 49 d3 ba 7f af 24 3d 91 f8 dc 3c
       -0.24948952 -0.0016119836 0.04020643 0.026973994
000050 a8 69 5b 3c 35 22 b5 3c 52 63 20 be 04 87 10 be
       0.01339189 0.022111038 -0.15662888 -0.14114004
000060 c3 a4 f2 bc 4b 75 a0 bb d8 c5 e1 bd 87 6a 48 bd
       -0.02961958 -0.004896795 -0.11024064 -0.048929717
000070 db 95 76 bd 91 41 0d bd ae 28 ea bd 6a bc 49 bb
       -0.060201507 -0.034486357 -0.1143354 -0.003078247
000080 16 b4 8d be aa 44 05 be a6 f9 71 bd e0 c0 2f 3d
       -0.27676457 -0.13014475 -0.059075974 0.04290855
000090 c0 3d e2 bc 37 6c a3 3d d1 a1 b7 3d 19 77 6e bd
       -0.027617335 0.07979625 0.08966411 -0.05821905
0000a0 cd 4a 26 3d 79 98 9f bd cf cb ab bd 60 54 09 bd
       0.04059868 -0.07792754 -0.08388483 -0.033527732
0000b0 0e 44 0c be ff f5 48 bd 6c ad 03 be 37 71 4b bd
       -0.13697836 -0.049062725 -0.12859124 -0.049668517
0000c0 e5 57 4e bd 3d 41 b6 3b 01 6e 24 be cc bd 1f be
       -0.05037679 0.005561976 -0.16057588 -0.15599746
0000d0 dc 6d 5e bc 8e b4 d9 3c 66 11 15 be 32 76 b9 bc
       -0.013575997 0.026575353 -0.14557418 -0.022639368
0000e0 f3 b8 06 bd 03 fb 89 be 52 05 85 3d f4 cc 87 3c
       -0.032891225 -0.2694932 0.064951554 0.016577221
0000f0 ee 1f 09 be e5 43 1f 3b 07 97 15 bd a4 c5 5b bd
       -0.13391086 0.0024301943 -0.036520984 -0.05365528
000100 cd 35 8f be f2 c7 80 bd 08 19 69 bd 1f 8d e3 bd
       -0.27970734 -0.062881365 -0.056908637 -0.11110901
000110 8f 09 05 be 36 b5 9b bc 3c 04 55 bd f8 63 ef bd
       -0.12991928 -0.019007307 -0.05200599 -0.116889894
000120 56 1f d8 bd ab ec 62 bc c3 31 18 be b6 77 e9 3c
       -0.10552852 -0.013850371 -0.14862733 0.028499465
000130 6b 86 5a 3d 62 01 e2 bc 4b d2 be bc 15 9d 86 be
       0.053350847 -0.02758855 -0.023293635 -0.2629172
000140 7d 00 32 3c 14 55 87 bd d9 8f fd bd a2 6e 39 3c
       0.010864374 -0.06608024 -0.123809524 0.011317881
000150 45 34 3c bd 07 3e b6 bd 39 c6 59 bd 1d 01 15 bd
       -0.045948286 -0.088985495 -0.053167555 -0.036378015
000160 ea 26 20 be b7 45 56 3c 0b 9e 25 bc c4 3b 18 be
       -0.15639845 0.013078145 -0.010108481 -0.14866549
000170 df af 00 be 8c a7 6f be de 62 57 3d fc ea 1f 3d
       -0.1256709 -0.23403758 0.05258452 0.039042458
000180 1f 81 59 bd 41 27 71 be 60 cd 3d bf 4a 79 40 bd
       -0.053101655 -0.2355013 -0.741415 -0.04699067
000190 2a 6d de 3e b3 80 9e be 70 58 35 3e d2 02 75 be
       0.4344266 -0.30957565 0.17709517 -0.23926857
0001a0 46 73 51 3d 87 f9 dc 3e 97 0a 06 be f7 5f 59 bf
       0.051135324 0.43159124 -0.13089977 -0.84912056
0001b0 6e 86 c2 bb a0 7c b7 bd 63 e0 24 be fb ef cc bf
       -0.0059364354 -0.08959317 -0.16101222 -1.6010736
0001c0 a8 ad 7c 3f 5b 5a c0 bf e5 93 48 bf 72 55 72 3e
       0.9870248 -1.5027574 -0.7835067 0.23665407
0001d0 29 50 94 3e 52 64 18 3f 38 e9 c6 3d 9a 74 c2 3e
       0.28967407 0.59528077 0.09712452 0.37979585
0001e0 0b a7 0f bf 98 b7 41 be 00 0a 13 bd 9c 2d 22 3e
       -0.5611426 -0.18917692 -0.03589821 0.15837711
0001f0 2b 92 55 be 41 65 42 3d f6 e3 b5 3d 96 a7 44 bf
       -0.2085654 0.047459844 0.08881371 -0.76818216
000200 85 35 58 3e 4e 23 f5 be 47 5d 0d 3f 71 ce 83 bf
       0.21114166 -0.47878498 0.55220455 -1.0297376
000210 25 73 e4 be 5b d4 45 3c 3f 88 87 bd ff 27 6d be
       -0.44619098 0.012074555 -0.06617784 -0.23159789
000220 71 5c 0d c0 e1 12 89 3c a6 30 12 be 48 70 9e be
       -2.2087672 0.016732635 -0.1427637 -0.3094504
000230 e4 96 09 be 39 8e 8c 3f e0 10 66 bd 20 80 5d b9
       -0.13436466 1.0980903 -0.056168437 -0.00021123933
000240 1a 00 37 3d e6 98 99 3a 3d 0f 44 be 2b fc f8 3d
       0.04467783 0.0011718541 -0.19146438 0.12157472
000250 07 45 20 bf 67 50 bc bf 74 c3 c0 3e 08 db 08 3c
       -0.6260533 -1.4712037 0.3764912 0.008353002
000260 53 d5 34 3c c8 2a dc bd 3c b0 d8 bf 3c a9 1f bf
       0.011037189 -0.107503474 -1.6928782 -0.62367606
000270 79 50 07 bf 3e f3 00 be cf 7f fc 3e 53 2a 28 3e
       -0.52857167 -0.1259279 0.4931626 0.16422395
000280 b8 3d a9 be b3 5c 8c bd 7a 3e 1c c0 6d 74 46 3f
       -0.330549 -0.068536185 -2.4413133 0.775214
000290 a3 52 ff be 74 24 2b bd 3a 70 1b bf 5d c9 44 3e
       -0.49867734 -0.04178281 -0.6071812 0.19217439
0002a0 68 38 bd 3f 08 25 4d bd bf 12 c8 bf c1 8f 1a be
       1.4782839 -0.050084144 -1.5630721 -0.150939
0002b0 b7 3e 03 bf 49 6b fa 3b 72 86 c3 be 94 ab 2d bd
       -0.5126757 0.007642184 -0.3818851 -0.042399958
0002c0 d8 83 7c be 4f 9e 77 bf 1a e4 c5 3d 6d 87 41 3c
       -0.2465967 -0.96725935 0.096626475 0.011812073
0002d0 21 e3 73 bd a6 bb 97 be c6 c4 4f 3e 3b b5 a4 be
       -0.05954278 -0.29635352 0.20289907 -0.32169518
0002e0 c7 ec 73 3f 3f da 16 be 98 20 86 3d 56 50 62 3e
       0.9528317 -0.14731692 0.065491855 0.22100958
0002f0 2f f6 07 3f b1 d2 a3 be 37 75 16 bd 0d 0c 7f bf
       0.5311002 -0.31996682 -0.03673288 -0.99627763
000300 9b 17 f5 be 55 77 63 bf a9 30 f2 3e d0 a5 da be
       -0.47869572 -0.8885396 0.4730275 -0.4270463
000310 2f 77 9e bd be 4a b1 bd f6 24 3a bd d7 37 a0 bc
       -0.07737576 -0.08656834 -0.045445405 -0.019557877
000320 8f 1f f5 bd 79 32 00 be 57 d1 96 bd dc d7 0b 3d
       -0.1196891 -0.12519254 -0.07364147 0.034141406
000330 c8 60 c4 bd 7d 8c 06 bf aa 9d d0 3c f8 65 17 3d
       -0.09588772 -0.5255812 0.025465805 0.03696248
000340 49 b2 b2 bd 32 bd 57 be 84 45 ba 3d 8f 14 05 be
       -0.087254114 -0.21068266 0.0909529 -0.12996124
000350 6e 45 af bd 58 c1 ff bb 77 0d 94 3d 9c 26 d4 be
       -0.085581645 -0.007805031 0.07229131 -0.41435707
000360 25 ee e2 bb 6a ba f2 be 58 c0 c7 be 86 76 b7 be
       -0.0069253617 -0.47407848 -0.39013934 -0.35832614
000370 84 13 4a be f4 3e da bc 4a ce 3c be e2 80 b2 3c
       -0.19734007 -0.026641347 -0.18438068 0.021789972
000380 65 6c a5 3d ef f1 4b 3d 4e 41 0c be a9 ad 10 bd
       0.08077315 0.049791273 -0.13696787 -0.035321865
000390 f6 26 b4 be 33 54 ed be 12 f0 2a bf ee f1 7b 3d
       -0.35185975 -0.463533 -0.6677257 0.06151002
0003a0 e1 aa 8a bd 78 f2 1e 3d db ed d8 be 5d 94 85 bd
       -0.06770874 0.038805455 -0.4236897 -0.06522439
0003b0 14 ef aa bd 88 85 23 3d 19 74 94 bd b1 65 80 3d
       -0.08346382 0.039922267 -0.07248706 0.06269396
0003c0 f2 42 a7 bd a3 0d b8 3b 00 11 f0 ba 0a 2e 2b bd
       -0.08167066 0.00561686 -0.0018315613 -0.041791953
0003d0 6c 01 26 bc 56 01 35 3e db 08 b2 3d 3d c2 17 bf
       -0.010132175 0.17676291 0.08693095 -0.5928076
0003e0 8c 60 65 3d 0d b1 6e 3d 44 dc 82 bd 60 d1 1c be
       0.056000277 0.058274318 -0.063896686 -0.15314245
0003f0 3f 04 ec be 23 3c eb bd e6 55 b2 bd 54 89 c2 bd
       -0.4609699 -0.114860795 -0.0870779 -0.094988495

layer_2.bias f4 [98]
000000 0b 10 89 be ee 72 97 bf 61 6a ba be 68 f8 95 be
       -0.26770052 -1.1831949 -0.36409286 -0.2929108
000010 d5 87 1a bd 73 06 70 bf 5a 8f d9 be 0f 4a df be
       -0.037727196 -0.9375984 -0.4249218 -0.4361119
000020 1e 0d 3a be e3 ad d5 be 61 41 21 bd e4 e8 a0 bd
       -0.18169066 -0.41734228 -0.03936899 -0.0785692
000030 99 48 10 bc 95 91 ad be 74 c0 0a bf ce ef 21 bf
       -0.008806371 -0.33900133 -0.5419991 -0.6325654
000040 96 4c 36 3d d0 e5 e6 be f3 2f fb bd 34 bd a9 be
       0.04450663 -0.45097208 -0.12265005 -0.33152163
000050 3a 1f 91 be 84 ff fc be f2 47 e1 be 02 08 e1 be
       -0.28344136 -0.49413693 -0.44000202 -0.43951422
000060 61 f0 a5 be 03 12 f7 be 3a 07 a4 3f b6 78 a3 be
       -0.32409957 -0.4825593 1.2814705 -0.31928033
000070 27 9e e6 bd fe 9f 81 be 81 01 00 bf da 65 bb be
       -0.11260634 -0.25317377 -0.50002295 -0.36601144
000080 9f 00 d6 bc 12 fa a8 be 0e ce e5 be 3b ed 33 bf
       -0.026123343 -0.33003289 -0.4488377 -0.7028386
000090 c0 91 df be 23 fd 98 be fd 0c ad bd 6b bb f7 be
       -0.43665886 -0.29880628 -0.08449743 -0.48385176
0000a0 14 28 b7 be f0 22 ef be 44 d7 81 be 90 4e 03 bf
       -0.35772765 -0.46706343 -0.25359547 -0.5129175
0000b0 f1 03 17 be 4e 42 b1 be 57 7e 98 be 22 e4 a9 bd
       -0.14747597 -0.346209 -0.2978389 -0.08295466
0000c0 5a f4 c8 be b9 84 3c bf 83 f7 b7 be a2 b4 14 be
       -0.39248925 -0.7364002 -0.35931024 -0.14522031
0000d0 33 90 c1 bd 90 c4 c2 bd df 43 ea be 0a 82 da be
       -0.09451332 -0.095101476 -0.45754907 -0.42677337
0000e0 8a d7 95 3f 62 b2 5c be 88 31 41 bd dc 98 d8 be
       1.1706402 -0.21552423 -0.047166377 -0.42304122
0000f0 89 6e 22 be 37 68 b1 be 6c d0 2d 3c f1 16 a8 be
       -0.15862478 -0.34649822 0.010608774 -0.32830003
000100 82 00 23 be e0 b8 1a bf 91 67 71 bd 9c 3f a8 be
       -0.15918162 -0.60438347 -0.05893666 -0.3286103
000110 25 33 76 be b7 50 27 bf 86 ba bc bd 48 63 2c be
       -0.24042948 -0.65357536 -0.09215264 -0.16834748
000120 a5 47 d9 be dc 94 c0 be ab 6d a4 be 85 e3 66 be
       -0.42437473 -0.3761357 -0.3211492 -0.2254773
000130 e4 bf df be df 31 b2 be 63 5a 02 bf a3 34 88 be
       -0.43701088 -0.34803674 -0.5091917 -0.2660266
000140 5b 00 e6 bd 67 6d 24 be 59 e5 c4 be db f0 1d bf
       -0.112305366 -0.16057359 -0.38456228 -0.6169564
000150 ba cb f0 be b9 d9 bf bd 2f 0b fe be a6 38 e3 be
       -0.4703043 -0.09367699 -0.49617907 -0.44379157
000160 b7 c8 0c be 5a c7 94 3c 1a 3f 37 bf 75 17 fd be
       -0.13748442 0.018161464 -0.7158066 -0.4943196
000170 e6 56 6a bd 3e 90 c1 bd 4a 0f a7 be b8 03 c8 bd
       -0.05721178 -0.0945134 -0.32628852 -0.09766334
000180 a0 90 e3 bd 3d 05 6f be
       -0.111115694 -0.23341842

layer_3.weight f4 [98, 98]
000000 dc fa 85 bc d8 48 1d be 78 67 cb 3e ad 04 0c 3e
       -0.01635497 -0.15359819 0.39727378 0.13673659
000010 03 71 8d bd 27 f8 c0 be 5f 04 b5 be 30 a4 9f be
       -0.06906321 -0.37689325 -0.35354897 -0.31179953
000020 c7 c3 ff 3c 40 02 38 3e a7 e3 b8 3c 44 21 3f bd
       0.031221284 0.17969608 0.02256949 -0.046662584
000030 98 66 ec bc 1d 34 c1 3c c3 a9 0b 3e 66 02 03 bd
       -0.028857514 0.02358442 0.13638978 -0.03198471
000040 94 b5 86 bb 44 3b 3a bd 01 f9 ff 3d ea 46 d0 bb
       -0.0041110013 -0.045466676 0.124986656 -0.00635611
000050 5b 88 98 3e e4 d8 a0 bd d9 21 d4 3e d9 b5 00 be
       0.2979153 -0.078538686 0.41432074 -0.1256937
000060 75 e7 72 3d 23 05 14 bf 93 22 5c ba a3 a2 8a 3e
       0.059302766 -0.5782034 -0.0008397486 0.27077207
000070 74 5e 36 3c 3d 38 25 3e ae e1 82 3d 28 e1 80 be
       0.011130918 0.16134734 0.06390701 -0.2517178
000080 87 fc 9b bd 16 f4 79 3e 00 2a cd bd 11 f9 56 be
       -0.07616525 0.24409518 -0.100177765 -0.20993449
000090 f5 aa 0e 3f c4 9a a8 bd ae ec 2c 3c c1 0a d3 3e
       0.5572961 -0.08232644 0.010554476 0.41219142
0000a0 49 c4 e2 be 5a eb a4 bd 53 34 45 3c 7f cd 68 be
       -0.4429038 -0.08052702 0.012036401 -0.2273464
0000b0 2c 24 f3 bd 6e 7f 9e be 4c ed 90 3e 8b fb 6e 3d
       -0.118721336 -0.30956596 0.28306043 0.05834536
0000c0 99 1e 87 3e 5b 87 07 3e ed 7e ae be a0 a1 eb 39
       0.26390532 0.13235228 -0.34081212 0.00044943113
0000d0 f5 50 4b bc 7e 26 2c bd 61 d5 af be 65 13 08 bd
       -0.012409438 -0.042028897 -0.34342483 -0.03322162
0000e0 96 fe 5c 3b 8d f5 24 3e 80 06 b3 bb e8 0e 06 bd
       0.003372108 0.16109295 -0.0054634213 -0.03272906
0000f0 32 7d 97 bd c0 8b 59 3e 61 87 17 3d 80 01 8c 3e
       -0.07396926 0.21244717 0.03699434 0.27344894
000100 d6 34 c3 3b 0b 62 a6 3e b6 75 be 3d f2 cb a6 3e
       0.0059572263 0.32496676 0.09299795 0.32577473
000110 8b 09 72 3b d3 39 17 be 8a bb ce 3d 21 cb 55 3d
       0.0036931958 -0.14768152 0.10094364 0.052195672
000120 bb b4 bc be b2 66 7e 3e 52 a2 ab 3d cd e1 c3 3d
       -0.36856636 0.24843863 0.083805695 0.095645525
000130 9c 50 97 be 23 5d 04 3e e0 8d 43 bd b4 9e 1a 3f
       -0.29553688 0.12926154 -0.047742724 0.6039841
000140 5f cc ab bd 51 a9 1f 3b 98 40 56 3d fc f9 95 3d
       -0.0838859 0.0024362395 0.052307695 0.07323071
000150 b4 44 b1 bc dc c1 82 be b9 e7 d3 3d 91 95 c5 3c
       -0.021639206 -0.25538528 0.10346932 0.02411917
000160 39 31 eb bc 32 f5 e4 3d ca 18 46 3e 03 e6 ad be
       -0.028709995 0.1117958 0.19345394 -0.33964548
000170 71 6d 2d be c4 ea 2f 3d 7a 37 01 3d f7 eb da 3d
       -0.1693628 0.0429485 0.031547047 0.10689538
000180 f0 b5 80 bd e5 e9 68 bd 97 e0 93 bd ab 05 25 bc
       -0.06284702 -0.056863684 -0.072205715 -0.010072152
000190 4c bb c7 3d c6 0f ae 3e 35 7d 15 bb a9 db 25 3e
       0.09752521 0.3399641 -0.0022810225 0.16197075
0001a0 91 6e a9 be 2d e0 6b be 0c 2d a3 bd dc c8 85 3e
       -0.33092168 -0.23034735 -0.079675764 0.26129806
0001b0 c8 d9 f3 bd 08 f7 cf bc d8 4e d3 bd 35 f5 92 bd
       -0.11906773 -0.025386348 -0.103177726 -0.07175676
0001c0 ca 9e 96 be 5f ff 65 3e d1 11 8c ba 1a 0c 39 3e
       -0.2941802 0.22460698 -0.0010686462 0.18071023
0001d0 b7 97 1b 3e 64 9a 74 bd 17 b3 1a be e7 85 7b 3d
       0.15194593 -0.05971755 -0.1510738 0.061406996
0001e0 20 71 b1 3e c1 1b 9d bd ec 59 45 3d 18 56 02 bf
       0.3465662 -0.07671309 0.04818146 -0.5091262
0001f0 32 60 4d bb ce 3f a8 3b 29 e8 17 3c bd 48 d5 3e
       -0.0031337854 0.0051345592 0.00927166 0.41657057
000200 47 ea 0a 3e 26 2d cc be fd 1b 31 3c ee e4 e3 3d
       0.13565932 -0.39878196 0.010809896 0.11127649
000210 d4 c4 11 3e f6 8e 92 be 5b f3 85 bd 47 1d 0b bd
       0.1423524 -0.28624696 -0.06540557 -0.033963468
000220 d6 ed 7d 3d 44 5f b0 be 76 40 b9 bc 5c 90 3c be
       0.061994396 -0.34447682 -0.022613745 -0.18414444
000230 28 af be bc 20 58 a3 be 09 bb 98 3d 83 26 ef bd
       -0.02327688 -0.31903172 0.07457549 -0.116772674
000240 54 95 31 be f8 ee b5 3b ec 0d 5c 3e ac fa ca 3c
       -0.1734212 0.005552169 0.21489686 0.024777733
000250 a3 28 b5 be fc 0d bd bc 4d aa 5f bd ba 9a b8 bd
       -0.35382566 -0.023077957 -0.05460577 -0.09013887
000260 90 7d ed be 8a 7a 84 3d e6 49 fe 3b 26 60 1f bc
       -0.4638486 0.06468685 0.007760274 -0.009727513
000270 01 eb 43 bd 40 44 95 3e 56 af b9 3d 96 c8 ce be
       -0.04783154 0.29153633 0.09066646 -0.4038741
000280 d4 90 3d bd f1 63 14 3e d5 a0 ce 3b 1f c2 7f 3e
       -0.046280697 0.1449125 0.0063057938 0.24976395
000290 86 78 98 3c bc 9a 98 3e 37 fd c8 3c 3e a8 8f be
       0.018612158 0.29805553 0.024534805 -0.28058046
0002a0 1e e9 e3 bd 5c e5 a5 bd fb 71 a9 be ba 23 3e 3e
       -0.11128448 -0.081003875 -0.33094773 0.18568316
0002b0 1f cf 43 3b 62 d7 0b bd e7 bd 6a be 7c f5 35 be
       0.0029878092 -0.034140952 -0.22924004 -0.17769426
0002c0 9d 5d a9 bd e2 8d bb 3d 6b b6 a7 bb 66 9d bf 3c
       -0.082698084 0.091579214 -0.0051181815 0.023390483
0002d0 b5 d5 be 3c 6b c2 15 3e a4 3a 9a be 38 13 5b bf
       0.023295263 0.14624946 -0.30122864 -0.855762
0002e0 05 dc 22 3e 88 ad 27 bc ab b9 25 bc 7b 40 04 3c
       0.15904243 -0.010234244 -0.0101150675 0.008072014
0002f0 78 5e 4d 3d 1b f9 94 be 8a e6 fb bd b9 db 43 bc
       0.05013892 -0.29096302 -0.12299831 -0.011954241
000300 45 3b 36 3d 9d 2a e3 bd 0e ed 8a bd 0e 06 ef 3c
       0.044490118 -0.11092112 -0.06783496 0.029177692
000310 60 05 65 bd ec b0 c7 3c 6c 3e 35 3e 35 b4 81 3e
       -0.05591333 0.024376355 0.17699593 0.253328
000320 41 91 cf 3c c6 69 67 be dd c0 1f be 70 6f 77 3e
       0.025337817 -0.22598943 -0.15600915 0.24163604
000330 e7 01 e7 3c 91 21 07 3f 9e a5 82 bd 01 fe 06 be
       0.02819915 0.52785593 -0.06379245 -0.13182832
000340 6e 7c 77 bd d1 d2 34 3d 2b a0 95 3e 2a 26 51 bd
       -0.0604214 0.044146363 0.2922376 -0.051061787
000350 a9 cb 70 3e e3 ee 7e 3d 68 04 35 3e b8 22 99 3c
       0.2351519 0.06223954 0.17677462 0.018693313
000360 a7 a0 18 be 37 e0 ec 3d 7c 9a 9e 3e fc b5 10 be
       -0.14905034 0.11566203 0.30977237 -0.14131922
000370 07 ab 6d 3d 53 ac cc 3d 35 30 ef b6 0f 49 ef b8
       0.058024433 0.09993806 -7.128367e-06 -0.00011410016
000380 28 a0 57 3d f2 39 5a be ae 7c 6e be cb 6d a2 be
       0.05264297 -0.21311167 -0.23289749 -0.3172439
000390 a5 41 e5 bc 90 64 c8 3e 36 94 83 3d d7 33 39 bd
       -0.027985403 0.39139223 0.06424753 -0.045215454
0003a0 fa 3d 33 3e 3f fd 71 be fb ba 94 bd af 8a 84 3e
       0.17504111 -0.23631762 -0.07262226 0.25887057
0003b0 07 92 0e 3f 95 2d 84 be 9c 9d 08 bd 67 86 38 be
       0.5569157 -0.25816026 -0.033353433 -0.1802002
0003c0 85 52 c3 3d 2b e4 12 be 4b 40 a9 be 5d 64 85 bd
       0.09537224 -0.14344852 -0.33056864 -0.065132834
0003d0 ab b8 96 be ba fe 93 3e c7 3b 83 be a7 22 ad 3c
       -0.29437765 0.28905278 -0.25631544 0.021134688
0003e0 0b 3a b5 bd ba 9d d8 bd 84 5c cc 3e af b0 24 3e
       -0.088489614 -0.10576959 0.39914334 0.16083024
0003f0 57 b3 cd b6 0c 7b 6e bd 23 03 26 3d 1f 89 1d 3e
       -6.130354e-06 -0.058222815 0.040530335 0.15384339

layer_3.bias f4 [98]
000000 1b 18 95 bb b1 fb 8c 3c 5d 21 e0 38 92 f2 36 b8
       -0.0045499927 0.01720986 0.00010687367 -4.3618093e-05
000010 3b da c2 3a 87 be c0 3b 98 05 29 3c ab 73 9d 3c
       0.0014866063 0.0058820876 0.010316275 0.019220194
000020 c3 84 db 3c 8a b4 b4 bc 33 0c 89 3b d3 be 88 3d
       0.026796704 -0.022058744 0.0041823625 0.06677022
000030 76 96 72 3a 98 31 83 3c b4 a7 19 3c 98 1a 0d be
       0.0009253988 0.01601486 0.009378362 -0.13779676
000040 cd 80 16 3c 9c f5 f0 bb 47 8b 07 3c 2e fb 9e bd
       0.009185982 -0.0073534977 0.008272952 -0.077627525
000050 51 61 01 3c f4 59 17 bd 77 25 82 bc c1 3d 85 ba
       0.007896737 -0.03695102 -0.015887005 -0.0010165499
000060 0f 18 29 bc da 82 72 bc 65 29 1c 3c 5c d4 84 3b
       -0.010320677 -0.014801705 0.009531354 0.0040536355
000070 16 a4 31 3b dc dc 12 3a b2 33 35 3c 12 ae 00 bd
       0.002710586 0.00056023686 0.011059688 -0.031416006
000080 9b 9e 6f 39 d1 09 de ba 2a 20 67 bd 2e b1 03 3a
       0.00022851901 -0.0016940181 -0.05642716 0.0005023655
000090 49 3c 20 3b 53 1b f0 bb 70 40 27 ba 58 18 91 3b
       0.0024449995 -0.007327476 -0.00063801464 0.004427951
0000a0 33 02 4c bd 86 4a 34 3c 35 cc 83 3c b7 33 74 3d
       -0.049806785 0.011004096 0.016088584 0.05961963
0000b0 0b 33 25 3c 37 85 79 3c 02 1e f4 3a 41 12 7c 3c
       0.01008297 0.015229515 0.0018624666 0.015385211
0000c0 3e 4b 02 bc 8c aa 8e 3c 5d c0 79 bd ad 6f 88 3b
       -0.007952509 0.017415307 -0.060974468 0.0041637034
0000d0 31 7d ee bc b5 0a c3 3c c8 b5 09 39 23 91 66 3b
       -0.02911243 0.023808816 0.00013133057 0.0035181723
0000e0 22 96 2b b9 07 81 12 bd 7e e9 c5 3b 2e de d6 bc
       -0.0001636376 -0.03576758 0.0060397973 -0.02622899
0000f0 f4 2a 9c bc ad e1 67 3c 29 0a 80 3c 46 18 9a bb
       -0.01906345 0.014152926 0.015629845 -0.0047026007
000100 1a 3a 5a 39 3d e9 13 3a 93 3e dc bd 5b 5d 39 3b
       0.00020811745 0.000564236 -0.107541226 0.0028284404
000110 c6 6c 16 bd fd 0e 97 3b 6c 2d 61 38 3e a9 e8 3b
       -0.03672483 0.004609941 5.3686483e-05 0.0071002534
000120 b1 62 12 3a bb 8f 68 ba 2c 82 65 3c 24 27 b8 3b
       0.0005584164 -0.0008871515 0.014008086 0.0056199003
000130 70 00 ff b8 39 55 62 bb 75 69 63 3c e6 49 e1 3c
       -0.00012159429 -0.003453566 0.013880123 0.027501058
000140 23 cc 00 bc 97 ce 9f 3c 8c f8 32 bc 6a 34 5e 3c
       -0.00786117 0.01950769 -0.010923516 0.013562301
000150 cc 1b 9a 3c da 95 1a 3c ae 3d c4 3d f2 eb 9b 39
       0.018812083 0.009435141 0.09582077 0.00029739697
000160 77 d4 a5 3b 00 7a 3b 3b 17 ce 21 be 9d 3a 83 bc
       0.005060728 0.0028606653 -0.15801273 -0.01601916
000170 b0 0a a1 3d 4c 80 88 3a a5 05 23 bc 35 ed fd bb
       0.078633666 0.0010414212 -0.009950076 -0.0077492245
000180 05 3d 72 ba 85 0c f8 bb
       -0.000924066 -0.007569852

layer_4.weight f4 [1, 98]
000000 43 47 0f 3a 2a ce 28 3b 4d 6b b8 36 ea f6 4f b8
       0.0005465636 0.002575765 5.496119e-06 -4.9582603e-05
000010 99 65 bd 39 26 4f 23 3b f2 e4 a7 3a 99 30 61 3b
       0.00036124585 0.0024919002 0.001280932 0.0034361242
000020 c5 2a ec ba 90 c6 04 bb 32 b4 8f 39 93 02 09 bc
       -0.0018018117 -0.0020259954 0.0002740934 -0.00836243
000030 98 f2 e9 39 99 25 90 3a c3 20 7d 3a 0c 2a ee 3b
       0.0004462197 0.0010997533 0.0009656066 0.007268196
000040 9c af 80 b9 04 9a 40 bb b4 4b ed 38 c8 ac 00 3f
       -0.00024544902 -0.0029388675 0.000113151415 0.50263643
000050 cb c2 61 3b 75 e6 4c bc 42 ff 48 ba 61 51 c6 b9
       0.003444838 -0.012506117 -0.0007667431 -0.00037826135
000060 99 a4 9c 3a 6e fd c4 ba b1 a7 fa 39 70 f9 d9 3a
       0.0011950909 -0.0015029141 0.00047808656 0.0016630124
000070 81 21 98 39 21 c1 23 39 0b 0c cd 3a 68 d4 a2 ba
       0.00029016662 0.00015616837 0.0015643848 -0.0012422921
000080 86 fb 52 36 97 c1 3a b9 7e 2e 47 bb 89 88 52 39
       3.1438844e-06 -0.0001781046 -0.0030392702 0.00020078024
000090 fd 1f 2f 3a 26 bb 90 38 40 df 6e b9 af 84 f4 3a
       0.0006680487 6.901314e-05 -0.00022780616 0.0018655265
0000a0 da 6e 09 bb d4 fa ed 3b cf 94 17 3b 77 97 0a 3b
       -0.0020970614 0.007262567 0.0023129468 0.002114741
0000b0 6d 49 ca 39 30 af 5f 3b 08 f5 0e 3a 29 08 88 3b
       0.0003858315 0.003413152 0.00054533826 0.0041513634
0000c0 c7 b3 14 ba 3b dd b1 3a 04 6e 18 bb 7c 57 8a 3a
       -0.0005672541 0.001356996 -0.0023258934 0.0010554637
0000d0 bf e0 20 bb 9c 92 c6 3a 26 6f 67 38 c7 4c 1d b9
       -0.0024548022 0.0015149894 5.5178207e-05 -0.00015001289
0000e0 1a 8f 18 b8 44 f7 ec bc 32 fc 6e 3a 4c 0c 02 ba
       -3.6372898e-05 -0.0289265 0.00091165595 -0.0004960939
0000f0 96 d9 a1 ba 5a 57 56 3a fe e1 1e 3a f4 8c a3 39
       -0.0012348171 0.00081764685 0.0006060897 0.000311948
000100 94 72 0f b8 e6 54 8a 39 ad 5b ec bc 30 f8 00 ba
       -3.4200566e-05 0.00026384665 -0.028852308 -0.00049197953
000110 b0 48 72 3b e1 29 75 39 87 36 ed 37 97 7d 6a 3b
       0.0036969595 0.00023380622 2.8277993e-05 0.0035780424
000120 3b 9f 7b 39 d2 87 69 b9 18 8d 8c 3b 9e 3d 11 3a
       0.00023996543 -0.00022271209 0.0042892806 0.0005540493
000130 21 08 77 b8 8c e8 ee b9 00 91 03 3b e8 66 5f 3b
       -5.889696e-05 -0.00045568158 0.002007544 0.0034088437
000140 4d a9 b2 b9 86 00 12 3b 1e fd 03 3a 9a 1e c3 3a
       -0.00034076945 0.0022278144 0.0005034971 0.0014886439
000150 38 80 9c bb 30 3c ec 37 67 40 38 3b df 1a 11 39
       -0.004776027 2.816142e-05 0.0028114559 0.00013838288
000160 4b 2f ab ba e1 5d b8 3a 94 30 97 bc f7 2e 89 ba
       -0.0013060359 0.0014066064 -0.018455781 -0.0010466267
000170 87 3f 65 3c 40 61 a8 38 fc 67 51 ba ca 3f 46 bb
       0.013992197 8.0289785e-05 -0.0007988212 -0.0030250424
000180 5d 4b bd b9 5f ec 8f 39
       -0.0003610504 0.00027451196
